…
2022-04-25 04:44:40.045524: I tensorflow/stream_executor/cuda/cuda_diagnostics.cc:176] hostname: DESKTOP-L4CUO3N
2022-04-25 04:44:40.068891: I tensorflow/core/platform/cpu_feature_guard.cc:151] This TensorFlow binary is optimized with oneAPI Deep Neural Network Library (oneDNN) to use the following CPU instructions in performance-critical operations:  AVX AVX2
To enable them in other operations, rebuild TensorFlow with the appropriate compiler flags.
Model: "sequential"
_________________________________________________________________
 Layer (type)                Output Shape              Param #
=================================================================
 conv2d (Conv2D)             (None, 188, 188, 3)       84

 max_pooling2d (MaxPooling2D  (None, 37, 37, 3)        0
 )

 conv2d_1 (Conv2D)           (None, 35, 35, 3)         84

 max_pooling2d_1 (MaxPooling  (None, 17, 17, 3)        0
 2D)

 flatten (Flatten)           (None, 867)               0

 dense (Dense)               (None, 100)               86800

 dense_1 (Dense)             (None, 3)                 303

=================================================================
Total params: 87,271
Trainable params: 87,271
Non-trainable params: 0
_________________________________________________________________
None
C:\ProgramData\Anaconda3\lib\site-packages\keras\optimizer_v2\adam.py:105: UserWarning: The `lr` argument is deprecated, use `learning_rate` instead.
  super(Adam, self).__init__(name, **kwargs)
…
